…
Various files include modifications (c) NVIDIA CORPORATION & AFFILIATES.  All rights reserved.

This container image and its contents are governed by the NVIDIA Deep Learning Container License.
By pulling and using the container, you accept the terms and conditions of this license:
https://developer.nvidia.com/ngc/nvidia-deep-learning-container-license

Number of devices: 4
successfully created sequences
successfully created datasets
Model: "sequential"
_________________________________________________________________
 Layer (type)                Output Shape              Param #   
=================================================================
 conv_lstm2d (ConvLSTM2D)    (None, 6, 204, 408, 64)   853248    
                                                                 
 batch_normalization (Batch  (None, 6, 204, 408, 64)   256       
 Normalization)                                                  
                                                                 
 conv_lstm2d_1 (ConvLSTM2D)  (None, 6, 204, 408, 32)   307328    
                                                                 
 batch_normalization_1 (Bat  (None, 6, 204, 408, 32)   128       
 chNormalization)                                                
                                                                 
 conv_lstm2d_2 (ConvLSTM2D)  (None, 204, 408, 32)      73856     
                                                                 
 batch_normalization_2 (Bat  (None, 204, 408, 32)      128       
 chNormalization)                                                
                                                                 
 conv2d (Conv2D)             (None, 204, 408, 16)      4624      
                                                                 
 conv2d_1 (Conv2D)           (None, 204, 408, 1)       145       
                                                                 
 reshape (Reshape)           (None, 204, 408)          0         
                                                                 
=================================================================
Total params: 1239713 (4.73 MB)
Trainable params: 1239457 (4.73 MB)
Non-trainable params: 256 (1.00 KB)
_________________________________________________________________
Epoch 1/200
  1/188 [..............................] - ETA: 2:45:40 - loss: 0.1482 - ma
…
