…
Various files include modifications (c) NVIDIA CORPORATION & AFFILIATES.  All rights reserved.

This container image and its contents are governed by the NVIDIA Deep Learning Container License.
By pulling and using the container, you accept the terms and conditions of this license:
https://developer.nvidia.com/ngc/nvidia-deep-learning-container-license

Number of devices: 4
successfully created sequences
successfully created datasets
Model: "sequential"
_________________________________________________________________
 Layer (type)                Output Shape              Param #   
=================================================================
 conv_lstm2d (ConvLSTM2D)    (None, 6, 204, 408, 64)   853248    
                                                                 
 batch_normalization (Batch  (None, 6, 204, 408, 64)   256       
 Normalization)                                                  
                                                                 
 conv_lstm2d_1 (ConvLSTM2D)  (None, 6, 204, 408, 32)   307328    
                                                                 
 batch_normalization_1 (Bat  (None, 6, 204, 408, 32)   128       
 chNormalization)                                                
                                                                 
 new_conv_lstm_1 (ConvLSTM2  (None, 6, 204, 408, 64)   614656    
 D)                                                              
                                                                 
 new_batch_norm_1 (BatchNor  (None, 6, 204, 408, 64)   256       
 malization)                                                     
                                                                 
 new_conv_lstm_2 (ConvLSTM2  (None, 204, 408, 16)      46144     
 D)                                                              
                                                                 
 new_batch_norm_2 (BatchNor  (None, 204, 408, 16)      64        
 malization)                                                     
                                                                 
 new_conv2d_1 (Conv2D)       (None, 204, 408, 16)      2320      
                                                                 
 new_conv2d_2 (Conv2D)       (None, 204, 408, 1)       145       
                                                                 
 new_reshape (Reshape)       (None, 204, 408)          0         
                                                                 
=================================================================
Total params: 1824545 (6.96 MB)
Trainable params: 663425 (2.53 MB)
Non-trainable params: 1161120 (4.43 MB)
_________________________________________________________________
Epoch 1/200
 1/34 [..............................] - ETA: 36:44 - loss: 0.0735 - mae
…
